training_server/trained_models/model.pth (torch, 102239 bytes, 3 tensors)

cnn_model.0.weight f4 [10, 1, 31, 81]
000000 73 b6 75 3d 43 85 38 bd 6a 78 a3 3d ef 44 14 3e
       0.05998845 -0.045048963 0.079819515 0.14479421
000010 3f e5 71 bd 38 5d cb be e6 64 e6 be e8 f7 2a 3e
       -0.059056517 -0.39719558 -0.44998854 0.16696131
000020 fb 5a a8 3d 20 c1 e4 bd 18 0d 8a 3d b5 8e 8c bd
       0.08220478 -0.11169648 0.06740779 -0.06863157
000030 a0 81 1a 3e 29 60 40 3d 98 83 c4 3d 04 cb aa 3c
       0.1508851 0.046966705 0.09595412 0.020848759
000040 1c be a1 3a e0 60 f0 bd 66 ab 7c 3e d9 29 ca 3d
       0.0012339982 -0.117372274 0.24674758 0.09871263
000050 1d c3 80 bc bf a3 25 3e f9 ef e5 bc 9a e9 02 3d
       -0.015718037 0.16175745 -0.02806853 0.03196106
000060 d0 cc a0 3e a5 7b 7b 3e 9c d3 30 3e e0 db 13 3e
       0.3140626 0.24558885 0.17268223 0.14439344
000070 56 2a 30 3e a6 51 0f 3e 20 d1 d2 bc 72 f4 29 3e
       0.1720365 0.1399599 -0.025734484 0.16597155
000080 0e 56 4f 3d ec c4 2c be 17 82 37 3e 5c 3b 52 bc
       0.050619178 -0.16871995 0.17920719 -0.012831535
000090 46 ab 0a 3e 09 92 aa 3d ab 62 98 bd 6b 28 19 3d
       0.13541898 0.08328635 -0.074406944 0.03739206
0000a0 14 11 b2 be 04 1c a2 be 81 2c 93 be b2 90 0a 3d
       -0.34778655 -0.31662 -0.2874489 0.0338294
0000b0 cf 1e 02 3d ab 4b 0e 3b 7c ae ad 3b cd 48 d6 bd
       0.031767663 0.0021712582 0.005300341 -0.104631044
0000c0 67 14 b3 3d ac 33 ab 3c 88 79 fc 3c 7a 61 0a 3d
       0.08744126 0.020898663 0.03081967 0.033784367
0000d0 83 81 bb bb 11 1a 20 bd a6 70 01 3e 05 f7 c4 3d
       -0.005722226 -0.03908736 0.12640628 0.09617428
0000e0 f4 85 22 be ee dc f8 3d 26 79 1d bd a7 34 39 be
       -0.15871412 0.12151514 -0.038445614 -0.18086492
0000f0 c0 c7 26 3e e5 fc 8f 3d 6b 1b 75 3e 33 0b 94 3d
       0.16287136 0.07030658 0.2393624 0.072286986
000100 39 05 01 3e 70 7b 32 bd 32 3b b0 3e 0c cb 49 3f
       0.12599649 -0.04357475 0.34420162 0.7882545
000110 9e cf 8f 3c 7b 9a 02 bf b9 49 84 be c4 b3 20 3d
       0.017555054 -0.5101697 -0.25837496 0.039233938
000120 91 0e f0 bd 30 a3 80 3d a2 38 bd bd e7 48 b9 3d
       -0.11721528 0.062811255 -0.092393175 0.09047108
000130 32 53 53 be b7 89 ee be 91 31 25 be 69 60 10 3e
       -0.20637205 -0.46589443 -0.1613219 0.14099278
000140 d6 70 b9 bd 8b ad 0b 3e b5 4b 76 3e 04 84 d1 3d
       -0.09054725 0.1364042 0.24052317 0.10230258
000150 9e 42 f9 bd 83 ec 68 be 39 0b 19 3f d4 46 24 3f
       -0.12170909 -0.22746472 0.5978275 0.64170575
000160 95 ad 23 bf 11 a3 cc be 31 4b 6d 3e f0 3a 66 bd
       -0.6393674 -0.3996816 0.23173214 -0.05620855
000170 45 91 03 bd 8f 8c be 3d 3b d4 1f 3d c1 d5 a2 3d
       -0.03212096 0.09304153 0.039020758 0.079509266
000180 70 22 4c 3e 60 5c 7f 3e f5 74 8e 3e ec c7 82 bd
       0.19935012 0.24937582 0.27823606 -0.06385788
000190 0a e7 8a bc fd 67 55 be 41 72 30 3e a6 38 a1 3d
       -0.016955871 -0.2084045 0.17231084 0.07872133
0001a0 6d 1d f7 3d 47 66 03 be ad 7f 7d 3d 5a 14 63 be
       0.120661594 -0.12831984 0.06188934 -0.22175732
0001b0 dc a9 10 3c 37 66 62 bd 2d 36 03 be 73 3e e2 3d
       0.00882956 -0.05527326 -0.12813635 0.110470675
0001c0 7f 3b 43 3d e8 05 05 be 01 c6 81 3d 1c 68 2e 3e
       0.04766416 -0.12990534 0.063365944 0.17031902
0001d0 f9 c3 9d bd ca 58 28 3e 3c 98 e8 3d b8 a2 83 3d
       -0.077033944 0.1644012 0.113571614 0.064275205
0001e0 31 c6 1c 3d c9 14 2d be ff 11 18 3e cd 5b ca 3d
       0.038274948 -0.1690246 0.14850615 0.09880791
0001f0 1b f2 de be b2 a4 03 be 3f d9 03 bc c5 26 9f be
       -0.43544087 -0.12855795 -0.008047401 -0.31084266
000200 5d ac 86 bd 00 b0 bc 3d bd 8e 27 be d8 bc da bc
       -0.065758444 0.09213257 -0.16363044 -0.026701376
000210 39 b2 37 3d 05 fc 0d 3e b8 a2 45 3e b8 95 a1 bc
       0.0448477 0.13865669 0.19300354 -0.019724712
000220 d3 ae 49 3d 15 f3 b5 bc dc 66 cc 3e 6b a6 d2 bc
       0.04923899 -0.022210637 0.39922225 -0.02571412
000230 5a 57 fa 3d 78 4b 47 bd b7 c5 06 3e 9a 43 80 be
       0.12223692 -0.048655957 0.1316136 -0.25051576
000240 65 e2 77 bd 43 0f c9 bc 3f 60 d0 be 61 fe 02 3f
       -0.06051864 -0.02454341 -0.4069843 0.511694
000250 67 97 e8 3e 81 ff b1 3d 49 b7 9e be 63 18 8b be
       0.4542801 0.08691312 -0.3099921 -0.27167043
000260 e9 ab 02 3e d7 70 59 3e 6e 20 94 3d 46 ae 87 3e
       0.12760891 0.21234451 0.07232748 0.26500148
000270 09 05 6c be 4f 08 d6 3d cb 9a c7 3e d6 bd 8b bd
       -0.23048796 0.104508035 0.38985285 -0.06823318
000280 7f 9d 9a be de 2e 0d bd 4a c3 f4 3b 19 0a c3 bd
       -0.30198285 -0.034468524 0.0074695693 -0.0952341
000290 c5 c3 a0 3e 39 af ae 3d 22 d4 ea be 1e 4a d7 3e
       0.3139936 0.08529515 -0.4586497 0.42048734
0002a0 39 b1 de 3e 38 6c b9 be e7 45 38 bf 40 a6 59 3d
       0.43494585 -0.36215377 -0.7198166 0.053137064
0002b0 11 5d ab bd e2 56 b7 3e 98 90 57 3e 2d f2 4f 3e
       -0.083673604 0.35808474 0.21051252 0.20307226
0002c0 2f 8c cd 3d be 35 01 bd 01 86 b4 bc d2 2e d6 3d
       0.100365035 -0.031545393 -0.022036554 0.10458149
0002d0 18 49 8e 3d a6 e5 a9 3e ae f4 ad 3c a0 9d 9a 3c
       0.06947535 0.3318302 0.021234836 0.01887399
0002e0 3a 17 4d 3e 73 1b f0 bd dd 08 f1 3c 94 42 9f 3d
       0.20028391 -0.117239855 0.029423172 0.07776371
0002f0 03 4f 38 3e 71 d8 0b be da 60 ca 3e c7 4e 8b bc
       0.1799889 -0.13656785 0.39527017 -0.017005337
000300 ae c7 27 3d e7 97 92 3e 6f 5c 6a 3e 99 42 9d bd
       0.040961914 0.28631517 0.22886823 -0.07678718
000310 24 02 3f bd a2 e6 9e bc fc 3c 59 3e c7 19 6a bd
       -0.0466329 -0.019397084 0.2121467 -0.05715349
000320 ab 37 83 3e 3e b5 29 be cb f7 51 be ed 04 86 bd
       0.2562841 -0.16573045 -0.20504682 -0.06543908
000330 45 76 9e bd 3b b1 ca be 4e d7 00 bf e1 3e a6 be
       -0.07737402 -0.3958834 -0.5032853 -0.32469848
000340 64 ba 39 3e 45 11 93 3e d9 58 5a 3e 41 0c 6e 3d
       0.18137509 0.28724113 0.21322955 0.058117155
000350 f2 22 3f 3d a2 60 0e be f3 0c 24 be e1 10 71 3e
       0.046664186 -0.1390405 -0.16020565 0.23541595
000360 5d 46 dc 3d 84 eb 66 3e bf 74 d0 bd 0a bb 0a be
       0.10755608 0.2255078 -0.101785176 -0.13547912
000370 2d 1f 64 3e b4 2e ac 3d e9 16 0a 3e a8 0d e4 3d
       0.22277518 0.084073454 0.13485302 0.11135417
000380 37 fd df 3d 06 e1 24 3c 65 56 d3 3d a5 34 87 be
       0.10936969 0.010063415 0.10319213 -0.26407352
000390 4b 0d 88 3e 47 79 cb 3e e2 f2 b2 3e 01 c0 9f be
       0.26572642 0.39740965 0.3495093 -0.31201175
0003a0 27 f1 d4 be 3a 2e 81 3c 85 13 11 3e 79 ca bd 3b
       -0.41590235 0.015769113 0.14167602 0.005791959
0003b0 d1 92 9c 3e 61 a2 3e be aa 8d d0 be 17 78 2e 3e
       0.30580762 -0.1861663 -0.4073308 0.17037998
0003c0 8d 7c 14 be 33 79 da ba 07 69 98 be 7d db 51 3e
       -0.14500637 -0.00166682 -0.2976763 0.20493884
0003d0 f2 67 04 3e 4a de d3 3d 2e 04 f9 bc 59 ae 68 bf
       0.12930277 0.10345133 -0.0303975 -0.90891033
0003e0 7d 2d f0 3e b8 16 17 3f a4 61 03 bf 2d 84 88 bf
       0.46909705 0.5901904 -0.5132086 -1.0665337
0003f0 92 29 17 bf c2 7e 98 3d e7 a0 f6 3c 13 76 24 3d
       -0.59047806 0.07446052 0.030106021 0.040151667

cnn_model.0.bias f4 [10]
000000 ec f2 54 be 5b c8 33 3f d0 f3 32 3f 25 1e 5a be
       -0.20795792 0.70227593 0.6990328 -0.21300562
000010 88 24 60 3f 2d f0 34 3f 7d 07 3d 3f d1 d9 42 be
       0.8755574 0.7067898 0.7383955 -0.19028403
000020 a9 77 55 be c1 fd 5c be
       -0.20846428 -0.21581174

cnn_model.2.weight f4 [1, 10, 1, 1]
000000 73 4d 8f 3f 74 bf bc bf 54 0a bb bf a6 6c 86 3f
       1.1195511 -1.4745927 -1.4612527 1.0501907
000010 b3 ab 99 bf 39 5d c1 bf 5b a7 ad bf dc 0a 95 3f
       -1.2005523 -1.5106574 -1.3566698 1.1643939
000020 30 b9 8b 3f 9b 9f 93 3f
       1.091589 1.1533083
